quora_auto_encoder/decoding_bias.npy (npy, 1104 bytes, 1 tensors)

array f4 [256]
000000 3e a8 e4 3a ce 8d 17 bc b2 bb 8d 3c aa 87 86 bc
       0.001744516 -0.0092501175 0.017301414 -0.016422112
000010 ca 20 93 bc 1d 8a ff bb 26 3c 9d 3c 19 20 40 bc
       -0.017959971 -0.007798447 0.01919372 -0.011726403
000020 1b 29 85 bc 10 b4 cb 3b 09 ac 50 bd a7 ff 82 bd
       -0.016254952 0.0062165335 -0.050945316 -0.06396418
000030 26 7f b6 bc 9f 03 db 3c 3b cd 03 bd 1c 93 23 bd
       -0.022277426 0.026735125 -0.032178145 -0.039935216
000040 58 c9 8a bd d1 c0 ca 3b 56 8d 38 bc b7 37 1a bd
       -0.067766845 0.0061875363 -0.011264166 -0.03765079
000050 2b 7f f0 3a 1b 65 86 bd 4c 93 2b 3d b8 6b ea 3c
       0.0018348446 -0.06562253 0.04188852 0.028615817
000060 13 9c 26 3d 31 2d 8e bc a5 50 0a 3d e3 7c 73 bd
       0.040676188 -0.017355533 0.033768315 -0.059445273
000070 f9 bf 85 bc 70 1b f4 3b 00 59 10 3d cc e2 b5 3c
       -0.016326891 0.00744956 0.035241127 0.022202872
000080 8d 8e 50 3d 94 46 0c bb fe 25 9d 3c ed c4 0e bd
       0.050917197 -0.0021404373 0.019183155 -0.03485577
000090 0c 1d 44 bd 20 2b 5f bd a8 5e a3 3b d6 81 85 bc
       -0.047879264 -0.054484487 0.004985649 -0.016297262
0000a0 44 e8 15 bd 31 68 3d 3d 00 4e e2 bd 2d 8b 66 3d
       -0.03659846 0.046241943 -0.110500336 0.056285072
0000b0 01 1e 3c bd 0c b6 40 bd 28 60 80 bd 7e b2 7a 3c
       -0.04592705 -0.047048613 -0.0626834 0.015301345
0000c0 fd 5a 9b 3a 8c 33 23 3d 48 c5 e9 3b 23 2d 95 3d
       0.0011852678 0.03984408 0.0071341135 0.07284
0000d0 47 65 11 bd 70 be 11 3d 19 2a ca bb d5 e8 99 bb
       -0.035496976 0.035582006 -0.006169569 -0.004696945
0000e0 27 73 c8 bc 5d be 30 3c 72 3b 51 bc 1f b9 fe 3c
       -0.024468971 0.010787574 -0.0127705205 0.031094132
0000f0 f0 31 42 bd fb d9 d1 3b 4a 6c a7 3c 1e 67 e2 bb
       -0.047410905 0.006404159 0.020437378 -0.006909265
000100 03 5b a8 3d 92 92 4e bd 1c 53 9e 3c b3 11 2c 3c
       0.08220484 -0.05043275 0.019326739 0.010502267
000110 3d 88 11 bc cf d9 29 3c db 08 93 bc 83 34 88 bd
       -0.008882579 0.010366871 -0.017948559 -0.06650641
000120 69 14 0b bd 99 1e 05 3e 5c 5b 50 3d 2a 07 93 bd
       -0.03395501 0.12999953 0.050868377 -0.07179101
000130 5a a5 a3 bc 75 da 27 bb 09 81 b0 3c d5 2d 4b bd
       -0.019976307 -0.0025612388 0.021545904 -0.049604256
000140 a7 00 c3 bc de be d8 3a 98 37 d4 3c 19 db 3e bd
       -0.023804022 0.0016536375 0.025905415 -0.046595667
000150 46 6f 8c 3d 6d c5 e6 bc dc d2 e8 3b ec 50 28 bd
       0.06857161 -0.028170312 0.0071052145 -0.041092798
000160 67 5f af bd a5 a5 98 3d 8a 3d e0 bc 78 53 ae 3c
       -0.085631184 0.07453469 -0.027373094 0.021280035
000170 28 1c 7b bb 16 6e 2b 3b 98 3b 4c 3d 3e af 0c bd
       -0.0038316343 0.0026158146 0.04986152 -0.03434681
000180 19 38 53 bc dc ee 17 3c 15 82 32 3d df d5 d7 bc
       -0.012891793 0.009273257 0.043581087 -0.026347099
000190 1e d5 43 bd 16 59 9a bb 53 78 4e bd a9 6e 9a 3d
       -0.047810666 -0.004710327 -0.05040772 0.07540638
0001a0 21 79 53 3d 8e 23 86 3c b2 d3 9d bd 89 69 4f 3d
       0.05162919 0.016374376 -0.07706393 0.050637756
0001b0 01 03 74 bb 7a 26 01 3a c4 4c ce bc b2 50 9c 3c
       -0.0037233236 0.0004926693 -0.02518309 0.019081447
0001c0 c1 af 21 3d 1f ec b9 3b 56 ff 3e bd 3a 3b dc b9
       0.039474253 0.0056739 -0.046630226 -0.00042005797
0001d0 aa 4f 8d 3c fc d1 d5 3c c1 d7 6e 3c 9a 53 2f bc
       0.0172499 0.026101105 0.014577807 -0.0107010845
0001e0 6c 0c 64 3a c5 aa 32 3c 99 10 68 bd 22 dc ef 3c
       0.0008699361 0.010904972 -0.056656454 0.029279772
0001f0 c3 00 ba bd 91 ce 9c 3c c4 50 21 bd 77 30 82 3d
       -0.090821765 0.019141467 -0.039383665 0.063569
000200 20 22 bd 3b 33 03 25 bc 98 26 e9 3c b8 ba 59 bc
       0.0057718903 -0.010071564 0.028460786 -0.013289146
000210 b7 8c ac bc fd 25 06 bc 27 b2 12 3c 7f 40 8b 3b
       -0.021063192 -0.008187768 0.008953608 0.004249632
000220 3f 85 87 bc be c6 44 3c d3 56 56 bd 83 70 83 bd
       -0.016543029 0.012010274 -0.052328896 -0.06417944
000230 8e cc be bc b3 bc ed 3c 09 33 0b bd c8 36 2f bd
       -0.023290899 0.029020643 -0.033984218 -0.042776853
000240 ca 1a 95 bd 75 ad 7c 3c a0 a6 57 bc 2d 86 db bc
       -0.072805 0.015422215 -0.013162285 -0.026797378
000250 8b 69 1a 3c ce 22 ae bd d1 27 4d 3d 12 6f f9 3c
       0.0094245775 -0.08502732 0.0500868 0.03044847
000260 60 fa 49 3d 07 43 82 bb 25 9b ee 3c a4 be 72 bd
       0.04931104 -0.0039752754 0.029126713 -0.05926384
000270 8e 75 77 bc e9 65 4a 3c b6 d4 19 3d 41 d9 12 3d
       -0.015103711 0.012353399 0.037556373 0.03585172
000280 bf b3 3e 3d 86 58 e6 bb d4 9f d5 3c 44 75 df bc
       0.046558138 -0.007029596 0.026077189 -0.027277596
000290 eb a5 06 bd 8c 65 62 bd bc 80 d1 ba e8 f3 65 bc
       -0.032873075 -0.055272624 -0.00159838 -0.014035203
0002a0 9b 0e e0 bc c5 13 37 3d 8d eb d8 bd 64 04 6f 3d
       -0.027350714 0.044696588 -0.10591803 0.058353797
0002b0 ee 39 26 bd 0c 0f 4c bd 3f d9 92 bd 78 26 3f 3c
       -0.04058259 -0.049819037 -0.07170343 0.0116668865
0002c0 31 83 e8 3b 9d 1a 31 3d b6 a0 e6 3b e7 0e 8d 3d
       0.0070957174 0.04323827 0.007038201 0.06887608
0002d0 f6 80 3e bd d7 0e ef 3c c5 ca 77 bc c4 c2 cc bb
       -0.046509705 0.02918188 -0.015124028 -0.006248804
0002e0 98 ec 95 bc a5 bd 99 3c 09 1f a3 bc 47 a7 07 3d
       -0.018301293 0.018767187 -0.01991226 0.033118512
0002f0 c0 af 4b bd 1c 8d 7f ba a7 33 f7 3c 95 a8 80 3b
       -0.049728155 -0.0009748505 0.030175997 0.0039263465
000300 98 c7 a4 3d a1 3c 11 bd 78 6c 93 3b b8 7d 97 3b
       0.08045882 -0.03545821 0.0044990145 0.004623141
000310 f8 c4 d0 bb 36 1c 79 3c 30 6f 8a bc 8b 0e 8d bd
       -0.0063711368 0.01520448 -0.016898721 -0.068875395
000320 45 03 8b bc 46 6d f9 3d 73 fc 68 3d 8b ee 67 bd
       -0.016969332 0.121790454 0.05688138 -0.056623977
000330 36 7f 71 bb e1 cc 11 3c b3 e0 e7 3c d8 f3 50 bd
       -0.0036849505 0.008898945 0.028305387 -0.051013798
000340 a7 f9 59 bc da ad 2c 3c 18 05 0d 3d 2b a6 57 bd
       -0.013304151 0.010539496 0.034428686 -0.052648704
000350 48 cd 99 3d 78 94 db bc af 43 0b 3c 1d 44 35 bd
       0.075098574 -0.026804194 0.008500024 -0.04425441
000360 17 9e a5 bd 5f 40 87 3d db 6f dd bc e9 31 ad 3c
       -0.08086794 0.06604075 -0.027030876 0.021141963
000370 17 b4 c8 bb 1b d5 c9 3b 97 9c 66 3d c0 d5 f0 bc
       -0.006124984 0.0061594374 0.05630168 -0.029398799
000380 20 1f 8e bc c4 43 7e 3b c2 93 41 3d ef a0 26 bd
       -0.017348826 0.0038797716 0.047260053 -0.040680822
000390 fd b7 41 bd 82 8f 5c bb de 6c 47 bd 35 04 9c 3d
       -0.047294606 -0.0033654873 -0.04868781 0.0761799
0003a0 51 12 78 3d 1b 75 e2 3b 46 51 94 bd d6 8e 57 3d
       0.060564343 0.0069109327 -0.07242064 0.052626453
0003b0 63 3b 54 3b 1a 21 76 bc a5 5b 0d bd 10 18 b3 3c
       0.003238403 -0.01502254 -0.034511227 0.02186206
0003c0 cb ab 1b 3d 8a f8 06 3c 4f 1e 30 bd ae c6 cf bb
       0.03800563 0.008237967 -0.042997655 -0.006340823
0003d0 92 67 87 3c d5 44 01 3d d7 27 4b 3c 1f 99 23 bc
       0.016528878 0.031559784 0.012399635 -0.009985237
0003e0 66 e9 1c 3a 32 7e 72 3c af 12 8a bd a2 1d 27 3d
       0.0005985707 0.014800595 -0.06741845 0.040799744
0003f0 dc b4 dd bd f2 d1 b3 3c eb 1c 3d bd de c3 59 3d
       -0.10825512 0.021950696 -0.046170156 0.05316531
