quora_auto_encoder/encoding_bias.npy (npy, 592 bytes, 1 tensors)

array f4 [128]
0.03773029 -0.005330764 0.08024388 -0.04132738 -0.048749205 0.036216542 0.055141956 0.03680405
-0.014104462 0.051490985 -0.02649304 0.019827306 -0.02536295 -0.008410032 0.030250937 -0.013822618
0.03989094 -0.010984143 0.017034223 -0.018699674 -0.034226958 -0.04903168 -0.017106434 -0.05338594
-0.015713753 0.019166857 -0.06546055 0.022728115 0.013162437 -0.0040804087 -0.03010276 -0.016308758
0.051375147 -0.011074454 -0.021865748 -0.036107566 -0.037909128 0.046057053 0.00072474475 0.022922304
-0.025788901 0.0033170742 0.00711948 0.040061902 -0.025696622 -0.054529414 -0.026960995 -0.038865924
-0.014089002 0.040222608 0.039524127 0.02785459 -0.034215286 -0.030003944 -0.0066070003 -0.043657593
-0.016493745 -0.036077537 0.050456688 0.024692187 -0.006280805 0.0040055625 -0.073110044 0.010887398
-0.031438533 -0.0013427567 -0.040046282 0.030513762 -0.028816538 0.06255432 0.002842415 -0.039345734
0.051263973 0.057349525 -0.022154095 0.047818735 -0.010022396 0.01617413 -0.009299769 0.028698506
0.028260097 0.009099832 -0.0018419693 -0.028183917 -0.04034277 0.015702989 0.0033053444 0.015679464
0.029162575 0.009830061 -0.009217575 -0.010449346 -0.0025882185 0.005520088 0.01245555 0.00845403
-0.025003094 0.02774389 -0.03456797 0.044783425 0.0012399207 0.022454888 0.042888366 -0.030330798
-0.00686241 -0.0022655986 0.03873873 0.04780777 0.013380571 -0.03954768 0.0025673884 0.010723262
-0.056700367 -0.013355228 -0.0053337994 -0.028194617 0.046747327 0.0125520285 0.05702632 -0.014945601
-0.021095771 -0.04261571 -0.007824857 0.011129822 0.026151793 -0.038957622 -0.015649445 0.037808727
00000000: 148b 1a3d b1ad aebb e756 a43d e646 29bd
00000010: 3fad 47bd cc57 143d 88dc 613d d8bf 163d
00000020: 6716 67bc 36e8 523d ef07 d9bc e06c a23c
00000030: f6c5 cfbc 3bca 09bc d0d0 f73c 4378 62bc
00000040: af64 233d d6f6 33bc 5b8b 8b3c 0f30 99bc
00000050: 9131 0cbd 71d5 48bd cb22 8cbc 37ab 5abd
00000060: 21ba 80bc d003 9d3c 2e10 86bd 5030 ba3c
00000070: 43a7 573c f3b4 85bb 109a f6bc f299 85bc
00000080: bf6e 523d a071 35bc cc1f b3bc 87e5 13bd
00000090: 9a46 1bbd 52a6 3c3d ccfc 3d3a 8ec7 bb3c
000000a0: 3f43 d3bc 4563 593b 874a e93b f317 243d
000000b0: b981 d2bc 3c5a 5fbd 4edd dcbc e031 1fbd
000000c0: 8fd5 66bc 76c0 243d 0de4 213d 4f2f e43c
000000d0: 5425 0cbd d5ca f5bc 897f d8bb 4ed2 32bd
000000e0: e41d 87bc 0ac6 13bd acab 4e3d 4547 ca3c
000000f0: 36cf cdbb 1841 833b b8ba 95bd 0f61 323c
00000100: b1c5 00bd 70ff afba 9207 24bd fff7 f93c
00000110: a910 ecbc 7b1c 803d cf47 3a3b fe28 21bd
00000120: 2cfa 513d 56e7 6a3d 817c b5bc 94dd 433d
00000130: fa34 24bc 9c7f 843c 0f5e 18bc 2119 eb3c
00000140: b881 e73c 7617 153c 3c6e f1ba f5e1 e6bc
00000150: 763e 25bd 8ea3 803c 7a9e 583b 3872 803c
00000160: 5ae6 ee3c 440e 213c 5005 17bc bc33 2bbc
00000170: 1a9f 29bb dbe1 b43b 5d12 4c3c c682 0a3c
00000180: 4ad3 ccbc 2847 e33c 2597 0dbd d36e 373d
00000190: d684 a23a 50f3 b73c b6ab 2f3d 4b78 f8bc
000001a0: 11de e0bb 707a 14bb 81ac 1e3d 15d2 433d
000001b0: 2f3a 5b3c c0fc 21bd a141 283b 9fb0 2f3c
000001c0: a53e 68bd e3cf 5abc 27c7 aebb 66f8 e6bc
000001d0: 207a 3f3d 06a7 4d3c 6e94 693d 65de 74bc
000001e0: 0ad1 acbc d08d 2ebd d433 00bc db59 363c
000001f0: 493c d63c 0792 1fbd 4433 80bc 53dd 1a3d
